{
    "format": "layers-model",
    "generatedBy": "keras v3.10.0",
    "convertedBy": "TensorFlow.js Converter v4.22.0",
    "modelTopology": {
        "keras_version": "3.10.0",
        "backend": "tensorflow",
        "model_config": {
            "class_name": "Sequential",
            "config": {
                "name": "sequential_10",
                "trainable": true,
                "dtype": {
                    "module": "keras",
                    "class_name": "DTypePolicy",
                    "config": {
                        "name": "float32"
                    },
                    "registered_name": null
                },
                "layers": [
                    {
                        "class_name": "InputLayer",
                        "config": {
                            "batch_input_shape": [
                                null,
                                48,
                                48,
                                1
                            ],
                            "dtype": "float32",
                            "sparse": false,
                            "ragged": false,
                            "name": "input_layer_10"
                        }
                    },
                    {
                        "class_name": "Conv2D",
                        "config": {
                            "name": "conv2d_50",
                            "trainable": true,
                            "dtype": {
                                "module": "keras",
                                "class_name": "DTypePolicy",
                                "config": {
                                    "name": "float32"
                                },
                                "registered_name": null
                            },
                            "filters": 128,
                            "kernel_size": [
                                3,
                                3
                            ],
                            "strides": [
                                1,
                                1
                            ],
                            "padding": "same",
                            "data_format": "channels_last",
                            "dilation_rate": [
                                1,
                                1
                            ],
                            "groups": 1,
                            "activation": "relu",
                            "use_bias": true,
                            "kernel_initializer": {
                                "module": "keras.initializers",
                                "class_name": "GlorotUniform",
                                "config": {
                                    "seed": null
                                },
                                "registered_name": null
                            },
                            "bias_initializer": {
                                "module": "keras.initializers",
                                "class_name": "Zeros",
                                "config": {},
                                "registered_name": null
                            },
                            "kernel_regularizer": null,
                            "bias_regularizer": null,
                            "activity_regularizer": null,
                            "kernel_constraint": null,
                            "bias_constraint": null
                        }
                    },
                    {
                        "class_name": "BatchNormalization",
                        "config": {
                            "name": "batch_normalization_70",
                            "trainable": true,
                            "dtype": {
                                "module": "keras",
                                "class_name": "DTypePolicy",
                                "config": {
                                    "name": "float32"
                                },
                                "registered_name": null
                            },
                            "axis": -1,
                            "momentum": 0.99,
                            "epsilon": 0.001,
                            "center": true,
                            "scale": true,
                            "beta_initializer": {
                                "module": "keras.initializers",
                                "class_name": "Zeros",
                                "config": {},
                                "registered_name": null
                            },
                            "gamma_initializer": {
                                "module": "keras.initializers",
                                "class_name": "Ones",
                                "config": {},
                                "registered_name": null
                            },
                            "moving_mean_initializer": {
                                "module": "keras.initializers",
                                "class_name": "Zeros",
                                "config": {},
                                "registered_name": null
                            },
                            "moving_variance_initializer": {
                                "module": "keras.initializers",
                                "class_name": "Ones",
                                "config": {},
                                "registered_name": null
                            },
                            "beta_regularizer": null,
                            "gamma_regularizer": null,
                            "beta_constraint": null,
                            "gamma_constraint": null,
                            "synchronized": false
                        }
                    },
                    {
                        "class_name": "MaxPooling2D",
                        "config": {
                            "name": "max_pooling2d_40",
                            "trainable": true,
                            "dtype": {
                                "module": "keras",
                                "class_name": "DTypePolicy",
                                "config": {
                                    "name": "float32"
                                },
                                "registered_name": null
                            },
                            "pool_size": [
                                2,
                                2
                            ],
                            "padding": "valid",
                            "strides": [
                                2,
                                2
                            ],
                            "data_format": "channels_last"
                        }
                    },
                    {
                        "class_name": "Dropout",
                        "config": {
                            "name": "dropout_70",
                            "trainable": true,
                            "dtype": {
                                "module": "keras",
                                "class_name": "DTypePolicy",
                                "config": {
                                    "name": "float32"
                                },
                                "registered_name": null
                            },
                            "rate": 0.25,
                            "seed": null,
                            "noise_shape": null
                        }
                    },
                    {
                        "class_name": "Conv2D",
                        "config": {
                            "name": "conv2d_51",
                            "trainable": true,
                            "dtype": {
                                "module": "keras",
                                "class_name": "DTypePolicy",
                                "config": {
                                    "name": "float32"
                                },
                                "registered_name": null
                            },
                            "filters": 256,
                            "kernel_size": [
                                3,
                                3
                            ],
                            "strides": [
                                1,
                                1
                            ],
                            "padding": "same",
                            "data_format": "channels_last",
                            "dilation_rate": [
                                1,
                                1
                            ],
                            "groups": 1,
                            "activation": "relu",
                            "use_bias": true,
                            "kernel_initializer": {
                                "module": "keras.initializers",
                                "class_name": "GlorotUniform",
                                "config": {
                                    "seed": null
                                },
                                "registered_name": null
                            },
                            "bias_initializer": {
                                "module": "keras.initializers",
                                "class_name": "Zeros",
                                "config": {},
                                "registered_name": null
                            },
                            "kernel_regularizer": null,
                            "bias_regularizer": null,
                            "activity_regularizer": null,
                            "kernel_constraint": null,
                            "bias_constraint": null
                        }
                    },
                    {
                        "class_name": "BatchNormalization",
                        "config": {
                            "name": "batch_normalization_71",
                            "trainable": true,
                            "dtype": {
                                "module": "keras",
                                "class_name": "DTypePolicy",
                                "config": {
                                    "name": "float32"
                                },
                                "registered_name": null
                            },
                            "axis": -1,
                            "momentum": 0.99,
                            "epsilon": 0.001,
                            "center": true,
                            "scale": true,
                            "beta_initializer": {
                                "module": "keras.initializers",
                                "class_name": "Zeros",
                                "config": {},
                                "registered_name": null
                            },
                            "gamma_initializer": {
                                "module": "keras.initializers",
                                "class_name": "Ones",
                                "config": {},
                                "registered_name": null
                            },
                            "moving_mean_initializer": {
                                "module": "keras.initializers",
                                "class_name": "Zeros",
                                "config": {},
                                "registered_name": null
                            },
                            "moving_variance_initializer": {
                                "module": "keras.initializers",
                                "class_name": "Ones",
                                "config": {},
                                "registered_name": null
                            },
                            "beta_regularizer": null,
                            "gamma_regularizer": null,
                            "beta_constraint": null,
                            "gamma_constraint": null,
                            "synchronized": false
                        }
                    },
                    {
                        "class_name": "MaxPooling2D",
                        "config": {
                            "name": "max_pooling2d_41",
                            "trainable": true,
                            "dtype": {
                                "module": "keras",
                                "class_name": "DTypePolicy",
                                "config": {
                                    "name": "float32"
                                },
                                "registered_name": null
                            },
                            "pool_size": [
                                2,
                                2
                            ],
                            "padding": "valid",
                            "strides": [
                                2,
                                2
                            ],
                            "data_format": "channels_last"
                        }
                    },
                    {
                        "class_name": "Dropout",
                        "config": {
                            "name": "dropout_71",
                            "trainable": true,
                            "dtype": {
                                "module": "keras",
                                "class_name": "DTypePolicy",
                                "config": {
                                    "name": "float32"
                                },
                                "registered_name": null
                            },
                            "rate": 0.25,
                            "seed": null,
                            "noise_shape": null
                        }
                    },
                    {
                        "class_name": "Conv2D",
                        "config": {
                            "name": "conv2d_52",
                            "trainable": true,
                            "dtype": {
                                "module": "keras",
                                "class_name": "DTypePolicy",
                                "config": {
                                    "name": "float32"
                                },
                                "registered_name": null
                            },
                            "filters": 512,
                            "kernel_size": [
                                3,
                                3
                            ],
                            "strides": [
                                1,
                                1
                            ],
                            "padding": "same",
                            "data_format": "channels_last",
                            "dilation_rate": [
                                1,
                                1
                            ],
                            "groups": 1,
                            "activation": "relu",
                            "use_bias": true,
                            "kernel_initializer": {
                                "module": "keras.initializers",
                                "class_name": "GlorotUniform",
                                "config": {
                                    "seed": null
                                },
                                "registered_name": null
                            },
                            "bias_initializer": {
                                "module": "keras.initializers",
                                "class_name": "Zeros",
                                "config": {},
                                "registered_name": null
                            },
                            "kernel_regularizer": null,
                            "bias_regularizer": null,
                            "activity_regularizer": null,
                            "kernel_constraint": null,
                            "bias_constraint": null
                        }
                    },
                    {
                        "class_name": "BatchNormalization",
                        "config": {
                            "name": "batch_normalization_72",
                            "trainable": true,
                            "dtype": {
                                "module": "keras",
                                "class_name": "DTypePolicy",
                                "config": {
                                    "name": "float32"
                                },
                                "registered_name": null
                            },
                            "axis": -1,
                            "momentum": 0.99,
                            "epsilon": 0.001,
                            "center": true,
                            "scale": true,
                            "beta_initializer": {
                                "module": "keras.initializers",
                                "class_name": "Zeros",
                                "config": {},
                                "registered_name": null
                            },
                            "gamma_initializer": {
                                "module": "keras.initializers",
                                "class_name": "Ones",
                                "config": {},
                                "registered_name": null
                            },
                            "moving_mean_initializer": {
                                "module": "keras.initializers",
                                "class_name": "Zeros",
                                "config": {},
                                "registered_name": null
                            },
                            "moving_variance_initializer": {
                                "module": "keras.initializers",
                                "class_name": "Ones",
                                "config": {},
                                "registered_name": null
                            },
                            "beta_regularizer": null,
                            "gamma_regularizer": null,
                            "beta_constraint": null,
                            "gamma_constraint": null,
                            "synchronized": false
                        }
                    },
                    {
                        "class_name": "MaxPooling2D",
                        "config": {
                            "name": "max_pooling2d_42",
                            "trainable": true,
                            "dtype": {
                                "module": "keras",
                                "class_name": "DTypePolicy",
                                "config": {
                                    "name": "float32"
                                },
                                "registered_name": null
                            },
                            "pool_size": [
                                2,
                                2
                            ],
                            "padding": "valid",
                            "strides": [
                                2,
                                2
                            ],
                            "data_format": "channels_last"
                        }
                    },
                    {
                        "class_name": "Dropout",
                        "config": {
                            "name": "dropout_72",
                            "trainable": true,
                            "dtype": {
                                "module": "keras",
                                "class_name": "DTypePolicy",
                                "config": {
                                    "name": "float32"
                                },
                                "registered_name": null
                            },
                            "rate": 0.25,
                            "seed": null,
                            "noise_shape": null
                        }
                    },
                    {
                        "class_name": "Conv2D",
                        "config": {
                            "name": "conv2d_53",
                            "trainable": true,
                            "dtype": {
                                "module": "keras",
                                "class_name": "DTypePolicy",
                                "config": {
                                    "name": "float32"
                                },
                                "registered_name": null
                            },
                            "filters": 768,
                            "kernel_size": [
                                3,
                                3
                            ],
                            "strides": [
                                1,
                                1
                            ],
                            "padding": "same",
                            "data_format": "channels_last",
                            "dilation_rate": [
                                1,
                                1
                            ],
                            "groups": 1,
                            "activation": "relu",
                            "use_bias": true,
                            "kernel_initializer": {
                                "module": "keras.initializers",
                                "class_name": "GlorotUniform",
                                "config": {
                                    "seed": null
                                },
                                "registered_name": null
                            },
                            "bias_initializer": {
                                "module": "keras.initializers",
                                "class_name": "Zeros",
                                "config": {},
                                "registered_name": null
                            },
                            "kernel_regularizer": null,
                            "bias_regularizer": null,
                            "activity_regularizer": null,
                            "kernel_constraint": null,
                            "bias_constraint": null
                        }
                    },
                    {
                        "class_name": "BatchNormalization",
                        "config": {
                            "name": "batch_normalization_73",
                            "trainable": true,
                            "dtype": {
                                "module": "keras",
                                "class_name": "DTypePolicy",
                                "config": {
                                    "name": "float32"
                                },
                                "registered_name": null
                            },
                            "axis": -1,
                            "momentum": 0.99,
                            "epsilon": 0.001,
                            "center": true,
                            "scale": true,
                            "beta_initializer": {
                                "module": "keras.initializers",
                                "class_name": "Zeros",
                                "config": {},
                                "registered_name": null
                            },
                            "gamma_initializer": {
                                "module": "keras.initializers",
                                "class_name": "Ones",
                                "config": {},
                                "registered_name": null
                            },
                            "moving_mean_initializer": {
                                "module": "keras.initializers",
                                "class_name": "Zeros",
                                "config": {},
                                "registered_name": null
                            },
                            "moving_variance_initializer": {
                                "module": "keras.initializers",
                                "class_name": "Ones",
                                "config": {},
                                "registered_name": null
                            },
                            "beta_regularizer": null,
                            "gamma_regularizer": null,
                            "beta_constraint": null,
                            "gamma_constraint": null,
                            "synchronized": false
                        }
                    },
                    {
                        "class_name": "MaxPooling2D",
                        "config": {
                            "name": "max_pooling2d_43",
                            "trainable": true,
                            "dtype": {
                                "module": "keras",
                                "class_name": "DTypePolicy",
                                "config": {
                                    "name": "float32"
                                },
                                "registered_name": null
                            },
                            "pool_size": [
                                2,
                                2
                            ],
                            "padding": "valid",
                            "strides": [
                                2,
                                2
                            ],
                            "data_format": "channels_last"
                        }
                    },
                    {
                        "class_name": "Dropout",
                        "config": {
                            "name": "dropout_73",
                            "trainable": true,
                            "dtype": {
                                "module": "keras",
                                "class_name": "DTypePolicy",
                                "config": {
                                    "name": "float32"
                                },
                                "registered_name": null
                            },
                            "rate": 0.25,
                            "seed": null,
                            "noise_shape": null
                        }
                    },
                    {
                        "class_name": "Conv2D",
                        "config": {
                            "name": "conv2d_54",
                            "trainable": true,
                            "dtype": {
                                "module": "keras",
                                "class_name": "DTypePolicy",
                                "config": {
                                    "name": "float32"
                                },
                                "registered_name": null
                            },
                            "filters": 1024,
                            "kernel_size": [
                                3,
                                3
                            ],
                            "strides": [
                                1,
                                1
                            ],
                            "padding": "same",
                            "data_format": "channels_last",
                            "dilation_rate": [
                                1,
                                1
                            ],
                            "groups": 1,
                            "activation": "relu",
                            "use_bias": true,
                            "kernel_initializer": {
                                "module": "keras.initializers",
                                "class_name": "GlorotUniform",
                                "config": {
                                    "seed": null
                                },
                                "registered_name": null
                            },
                            "bias_initializer": {
                                "module": "keras.initializers",
                                "class_name": "Zeros",
                                "config": {},
                                "registered_name": null
                            },
                            "kernel_regularizer": null,
                            "bias_regularizer": null,
                            "activity_regularizer": null,
                            "kernel_constraint": null,
                            "bias_constraint": null
                        }
                    },
                    {
                        "class_name": "BatchNormalization",
                        "config": {
                            "name": "batch_normalization_74",
                            "trainable": true,
                            "dtype": {
                                "module": "keras",
                                "class_name": "DTypePolicy",
                                "config": {
                                    "name": "float32"
                                },
                                "registered_name": null
                            },
                            "axis": -1,
                            "momentum": 0.99,
                            "epsilon": 0.001,
                            "center": true,
                            "scale": true,
                            "beta_initializer": {
                                "module": "keras.initializers",
                                "class_name": "Zeros",
                                "config": {},
                                "registered_name": null
                            },
                            "gamma_initializer": {
                                "module": "keras.initializers",
                                "class_name": "Ones",
                                "config": {},
                                "registered_name": null
                            },
                            "moving_mean_initializer": {
                                "module": "keras.initializers",
                                "class_name": "Zeros",
                                "config": {},
                                "registered_name": null
                            },
                            "moving_variance_initializer": {
                                "module": "keras.initializers",
                                "class_name": "Ones",
                                "config": {},
                                "registered_name": null
                            },
                            "beta_regularizer": null,
                            "gamma_regularizer": null,
                            "beta_constraint": null,
                            "gamma_constraint": null,
                            "synchronized": false
                        }
                    },
                    {
                        "class_name": "Dropout",
                        "config": {
                            "name": "dropout_74",
                            "trainable": true,
                            "dtype": {
                                "module": "keras",
                                "class_name": "DTypePolicy",
                                "config": {
                                    "name": "float32"
                                },
                                "registered_name": null
                            },
                            "rate": 0.25,
                            "seed": null,
                            "noise_shape": null
                        }
                    },
                    {
                        "class_name": "Flatten",
                        "config": {
                            "name": "flatten_10",
                            "trainable": true,
                            "dtype": {
                                "module": "keras",
                                "class_name": "DTypePolicy",
                                "config": {
                                    "name": "float32"
                                },
                                "registered_name": null
                            },
                            "data_format": "channels_last"
                        }
                    },
                    {
                        "class_name": "Dense",
                        "config": {
                            "name": "dense_30",
                            "trainable": true,
                            "dtype": {
                                "module": "keras",
                                "class_name": "DTypePolicy",
                                "config": {
                                    "name": "float32"
                                },
                                "registered_name": null
                            },
                            "units": 512,
                            "activation": "relu",
                            "use_bias": true,
                            "kernel_initializer": {
                                "module": "keras.initializers",
                                "class_name": "GlorotUniform",
                                "config": {
                                    "seed": null
                                },
                                "registered_name": null
                            },
                            "bias_initializer": {
                                "module": "keras.initializers",
                                "class_name": "Zeros",
                                "config": {},
                                "registered_name": null
                            },
                            "kernel_regularizer": null,
                            "bias_regularizer": null,
                            "kernel_constraint": null,
                            "bias_constraint": null
                        }
                    },
                    {
                        "class_name": "BatchNormalization",
                        "config": {
                            "name": "batch_normalization_75",
                            "trainable": true,
                            "dtype": {
                                "module": "keras",
                                "class_name": "DTypePolicy",
                                "config": {
                                    "name": "float32"
                                },
                                "registered_name": null
                            },
                            "axis": -1,
                            "momentum": 0.99,
                            "epsilon": 0.001,
                            "center": true,
                            "scale": true,
                            "beta_initializer": {
                                "module": "keras.initializers",
                                "class_name": "Zeros",
                                "config": {},
                                "registered_name": null
                            },
                            "gamma_initializer": {
                                "module": "keras.initializers",
                                "class_name": "Ones",
                                "config": {},
                                "registered_name": null
                            },
                            "moving_mean_initializer": {
                                "module": "keras.initializers",
                                "class_name": "Zeros",
                                "config": {},
                                "registered_name": null
                            },
                            "moving_variance_initializer": {
                                "module": "keras.initializers",
                                "class_name": "Ones",
                                "config": {},
                                "registered_name": null
                            },
                            "beta_regularizer": null,
                            "gamma_regularizer": null,
                            "beta_constraint": null,
                            "gamma_constraint": null,
                            "synchronized": false
                        }
                    },
                    {
                        "class_name": "Dropout",
                        "config": {
                            "name": "dropout_75",
                            "trainable": true,
                            "dtype": {
                                "module": "keras",
                                "class_name": "DTypePolicy",
                                "config": {
                                    "name": "float32"
                                },
                                "registered_name": null
                            },
                            "rate": 0.5,
                            "seed": null,
                            "noise_shape": null
                        }
                    },
                    {
                        "class_name": "Dense",
                        "config": {
                            "name": "dense_31",
                            "trainable": true,
                            "dtype": {
                                "module": "keras",
                                "class_name": "DTypePolicy",
                                "config": {
                                    "name": "float32"
                                },
                                "registered_name": null
                            },
                            "units": 256,
                            "activation": "relu",
                            "use_bias": true,
                            "kernel_initializer": {
                                "module": "keras.initializers",
                                "class_name": "GlorotUniform",
                                "config": {
                                    "seed": null
                                },
                                "registered_name": null
                            },
                            "bias_initializer": {
                                "module": "keras.initializers",
                                "class_name": "Zeros",
                                "config": {},
                                "registered_name": null
                            },
                            "kernel_regularizer": null,
                            "bias_regularizer": null,
                            "kernel_constraint": null,
                            "bias_constraint": null
                        }
                    },
                    {
                        "class_name": "BatchNormalization",
                        "config": {
                            "name": "batch_normalization_76",
                            "trainable": true,
                            "dtype": {
                                "module": "keras",
                                "class_name": "DTypePolicy",
                                "config": {
                                    "name": "float32"
                                },
                                "registered_name": null
                            },
                            "axis": -1,
                            "momentum": 0.99,
                            "epsilon": 0.001,
                            "center": true,
                            "scale": true,
                            "beta_initializer": {
                                "module": "keras.initializers",
                                "class_name": "Zeros",
                                "config": {},
                                "registered_name": null
                            },
                            "gamma_initializer": {
                                "module": "keras.initializers",
                                "class_name": "Ones",
                                "config": {},
                                "registered_name": null
                            },
                            "moving_mean_initializer": {
                                "module": "keras.initializers",
                                "class_name": "Zeros",
                                "config": {},
                                "registered_name": null
                            },
                            "moving_variance_initializer": {
                                "module": "keras.initializers",
                                "class_name": "Ones",
                                "config": {},
                                "registered_name": null
                            },
                            "beta_regularizer": null,
                            "gamma_regularizer": null,
                            "beta_constraint": null,
                            "gamma_constraint": null,
                            "synchronized": false
                        }
                    },
                    {
                        "class_name": "Dropout",
                        "config": {
                            "name": "dropout_76",
                            "trainable": true,
                            "dtype": {
                                "module": "keras",
                                "class_name": "DTypePolicy",
                                "config": {
                                    "name": "float32"
                                },
                                "registered_name": null
                            },
                            "rate": 0.5,
                            "seed": null,
                            "noise_shape": null
                        }
                    },
                    {
                        "class_name": "Dense",
                        "config": {
                            "name": "dense_32",
                            "trainable": true,
                            "dtype": {
                                "module": "keras",
                                "class_name": "DTypePolicy",
                                "config": {
                                    "name": "float32"
                                },
                                "registered_name": null
                            },
                            "units": 7,
                            "activation": "softmax",
                            "use_bias": true,
                            "kernel_initializer": {
                                "module": "keras.initializers",
                                "class_name": "GlorotUniform",
                                "config": {
                                    "seed": null
                                },
                                "registered_name": null
                            },
                            "bias_initializer": {
                                "module": "keras.initializers",
                                "class_name": "Zeros",
                                "config": {},
                                "registered_name": null
                            },
                            "kernel_regularizer": null,
                            "bias_regularizer": null,
                            "kernel_constraint": null,
                            "bias_constraint": null
                        }
                    }
                ],
                "build_input_shape": [
                    null,
                    48,
                    48,
                    1
                ]
            }
        },
        "training_config": {
            "loss": "categorical_crossentropy",
            "loss_weights": null,
            "metrics": [
                "accuracy"
            ],
            "weighted_metrics": null,
            "run_eagerly": false,
            "steps_per_execution": 1,
            "jit_compile": true,
            "optimizer_config": {
                "class_name": "Adam",
                "config": {
                    "name": "adam",
                    "learning_rate": 1.5625000742147677e-05,
                    "weight_decay": null,
                    "clipnorm": null,
                    "global_clipnorm": null,
                    "clipvalue": null,
                    "use_ema": false,
                    "ema_momentum": 0.99,
                    "ema_overwrite_frequency": null,
                    "loss_scale_factor": null,
                    "gradient_accumulation_steps": null,
                    "beta_1": 0.9,
                    "beta_2": 0.999,
                    "epsilon": 1e-07,
                    "amsgrad": false
                }
            }
        }
    },
    "weightsManifest": [
        {
            "paths": [
                "group1-shard1of17.bin",
                "group1-shard2of17.bin",
                "group1-shard3of17.bin",
                "group1-shard4of17.bin",
                "group1-shard5of17.bin",
                "group1-shard6of17.bin",
                "group1-shard7of17.bin",
                "group1-shard8of17.bin",
                "group1-shard9of17.bin",
                "group1-shard10of17.bin",
                "group1-shard11of17.bin",
                "group1-shard12of17.bin",
                "group1-shard13of17.bin",
                "group1-shard14of17.bin",
                "group1-shard15of17.bin",
                "group1-shard16of17.bin",
                "group1-shard17of17.bin"
            ],
            "weights": [
                {
                    "name": "sequential_10/batch_normalization_70/gamma",
                    "shape": [
                        128
                    ],
                    "dtype": "float32"
                },
                {
                    "name": "sequential_10/batch_normalization_70/beta",
                    "shape": [
                        128
                    ],
                    "dtype": "float32"
                },
                {
                    "name": "sequential_10/batch_normalization_70/moving_mean",
                    "shape": [
                        128
                    ],
                    "dtype": "float32"
                },
                {
                    "name": "sequential_10/batch_normalization_70/moving_variance",
                    "shape": [
                        128
                    ],
                    "dtype": "float32"
                },
                {
                    "name": "sequential_10/batch_normalization_71/gamma",
                    "shape": [
                        256
                    ],
                    "dtype": "float32"
                },
                {
                    "name": "sequential_10/batch_normalization_71/beta",
                    "shape": [
                        256
                    ],
                    "dtype": "float32"
                },
                {
                    "name": "sequential_10/batch_normalization_71/moving_mean",
                    "shape": [
                        256
                    ],
                    "dtype": "float32"
                },
                {
                    "name": "sequential_10/batch_normalization_71/moving_variance",
                    "shape": [
                        256
                    ],
                    "dtype": "float32"
                },
                {
                    "name": "sequential_10/batch_normalization_72/gamma",
                    "shape": [
                        512
                    ],
                    "dtype": "float32"
                },
                {
                    "name": "sequential_10/batch_normalization_72/beta",
                    "shape": [
                        512
                    ],
                    "dtype": "float32"
                },
                {
                    "name": "sequential_10/batch_normalization_72/moving_mean",
                    "shape": [
                        512
                    ],
                    "dtype": "float32"
                },
                {
                    "name": "sequential_10/batch_normalization_72/moving_variance",
                    "shape": [
                        512
                    ],
                    "dtype": "float32"
                },
                {
                    "name": "sequential_10/batch_normalization_73/gamma",
                    "shape": [
                        768
                    ],
                    "dtype": "float32"
                },
                {
                    "name": "sequential_10/batch_normalization_73/beta",
                    "shape": [
                        768
                    ],
                    "dtype": "float32"
                },
                {
                    "name": "sequential_10/batch_normalization_73/moving_mean",
                    "shape": [
                        768
                    ],
                    "dtype": "float32"
                },
                {
                    "name": "sequential_10/batch_normalization_73/moving_variance",
                    "shape": [
                        768
                    ],
                    "dtype": "float32"
                },
                {
                    "name": "sequential_10/batch_normalization_74/gamma",
                    "shape": [
                        1024
                    ],
                    "dtype": "float32"
                },
                {
                    "name": "sequential_10/batch_normalization_74/beta",
                    "shape": [
                        1024
                    ],
                    "dtype": "float32"
                },
                {
                    "name": "sequential_10/batch_normalization_74/moving_mean",
                    "shape": [
                        1024
                    ],
                    "dtype": "float32"
                },
                {
                    "name": "sequential_10/batch_normalization_74/moving_variance",
                    "shape": [
                        1024
                    ],
                    "dtype": "float32"
                },
                {
                    "name": "sequential_10/batch_normalization_75/gamma",
                    "shape": [
                        512
                    ],
                    "dtype": "float32"
                },
                {
                    "name": "sequential_10/batch_normalization_75/beta",
                    "shape": [
                        512
                    ],
                    "dtype": "float32"
                },
                {
                    "name": "sequential_10/batch_normalization_75/moving_mean",
                    "shape": [
                        512
                    ],
                    "dtype": "float32"
                },
                {
                    "name": "sequential_10/batch_normalization_75/moving_variance",
                    "shape": [
                        512
                    ],
                    "dtype": "float32"
                },
                {
                    "name": "sequential_10/batch_normalization_76/gamma",
                    "shape": [
                        256
                    ],
                    "dtype": "float32"
                },
                {
                    "name": "sequential_10/batch_normalization_76/beta",
                    "shape": [
                        256
                    ],
                    "dtype": "float32"
                },
                {
                    "name": "sequential_10/batch_normalization_76/moving_mean",
                    "shape": [
                        256
                    ],
                    "dtype": "float32"
                },
                {
                    "name": "sequential_10/batch_normalization_76/moving_variance",
                    "shape": [
                        256
                    ],
                    "dtype": "float32"
                },
                {
                    "name": "sequential_10/conv2d_50/kernel",
                    "shape": [
                        3,
                        3,
                        1,
                        128
                    ],
                    "dtype": "float32"
                },
                {
                    "name": "sequential_10/conv2d_50/bias",
                    "shape": [
                        128
                    ],
                    "dtype": "float32"
                },
                {
                    "name": "sequential_10/conv2d_51/kernel",
                    "shape": [
                        3,
                        3,
                        128,
                        256
                    ],
                    "dtype": "float32"
                },
                {
                    "name": "sequential_10/conv2d_51/bias",
                    "shape": [
                        256
                    ],
                    "dtype": "float32"
                },
                {
                    "name": "sequential_10/conv2d_52/kernel",
                    "shape": [
                        3,
                        3,
                        256,
                        512
                    ],
                    "dtype": "float32"
                },
                {
                    "name": "sequential_10/conv2d_52/bias",
                    "shape": [
                        512
                    ],
                    "dtype": "float32"
                },
                {
                    "name": "sequential_10/conv2d_53/kernel",
                    "shape": [
                        3,
                        3,
                        512,
                        768
                    ],
                    "dtype": "float32"
                },
                {
                    "name": "sequential_10/conv2d_53/bias",
                    "shape": [
                        768
                    ],
                    "dtype": "float32"
                },
                {
                    "name": "sequential_10/conv2d_54/kernel",
                    "shape": [
                        3,
                        3,
                        768,
                        1024
                    ],
                    "dtype": "float32"
                },
                {
                    "name": "sequential_10/conv2d_54/bias",
                    "shape": [
                        1024
                    ],
                    "dtype": "float32"
                },
                {
                    "name": "sequential_10/dense_30/kernel",
                    "shape": [
                        9216,
                        512
                    ],
                    "dtype": "float32"
                },
                {
                    "name": "sequential_10/dense_30/bias",
                    "shape": [
                        512
                    ],
                    "dtype": "float32"
                },
                {
                    "name": "sequential_10/dense_31/kernel",
                    "shape": [
                        512,
                        256
                    ],
                    "dtype": "float32"
                },
                {
                    "name": "sequential_10/dense_31/bias",
                    "shape": [
                        256
                    ],
                    "dtype": "float32"
                },
                {
                    "name": "sequential_10/dense_32/kernel",
                    "shape": [
                        256,
                        7
                    ],
                    "dtype": "float32"
                },
                {
                    "name": "sequential_10/dense_32/bias",
                    "shape": [
                        7
                    ],
                    "dtype": "float32"
                }
            ]
        }
    ]
}